model.pth (torch_old, 17161 bytes, 14 tensors)

weight f4 [20, 22]
000000 23 4d 08 be a3 03 b4 3d 48 61 6a bd 7e d7 f0 bd
       -0.13310675 0.08789756 -0.05722168 -0.11759852
000010 ce bd 07 be e4 a7 96 3d eb 9f 19 bd 33 dc 16 3e
       -0.13255998 0.07356241 -0.037506025 0.14732437
000020 42 e0 38 bd d8 b9 64 3d 88 fb 04 3e cd 28 10 3e
       -0.045135744 0.055841297 0.12986577 0.14078064
000030 94 b3 22 bd 71 8b 7c 3e c1 b6 2d 3d 3c 82 66 3d
       -0.03972204 0.24662568 0.042410616 0.056276545
000040 3b 11 96 ba 03 6e 06 bd 9a 1b 81 3e b3 1c 22 3e
       -0.0011449227 -0.03281976 0.2521637 0.1583126
000050 f5 ee 74 3e 82 99 65 bd c5 09 55 be 90 a4 78 be
       0.2391928 -0.0560546 -0.20804508 -0.24281526
000060 a7 0b 97 3d a2 52 b2 3d f4 48 e4 bd f9 dc 8d 3d
       0.073752694 0.08707167 -0.11146727 0.06926913
000070 78 5c 99 3d e8 ce 34 be b6 ec 8c bd 63 e7 e0 bd
       0.0748834 -0.17657053 -0.068810865 -0.109816335
000080 c0 84 3d bb 92 a7 95 bc 6f 6b a5 3d fa e7 9c bd
       -0.0028918236 -0.01826838 0.08077132 -0.076614335
000090 d6 3f 8d 3c bc cc 7a bc ab d0 2f be 8b 7d a7 bc
       0.017242353 -0.015307602 -0.17169444 -0.020445606
0000a0 f9 15 03 be 6b d4 cb 3d 07 a1 87 be d4 bb 92 3d
       -0.1280135 0.09952625 -0.26490042 0.071647316
0000b0 50 19 bb 3c 78 70 f1 3d fd bd b2 bd 29 39 50 3e
       0.022839218 0.1178903 -0.08727644 0.20334305
0000c0 a3 9a 9a 3d 90 30 b6 3c 3e 23 ce 3d f3 9d b1 3d
       0.07549026 0.022239953 0.10065316 0.086727045
0000d0 62 b0 21 3d cc 9d 74 bd e4 89 ed 3d a3 27 65 bd
       0.039474852 -0.0597208 0.11598566 -0.055946004
0000e0 9a 8b 2d 3e f3 4d 02 3e d7 f1 7e 3e 7a 41 d9 3d
       0.16947785 0.12725048 0.24896942 0.10608192
0000f0 21 6d dd bd ad 3b 14 3d 1a ec b1 bd 75 5d 90 3e
       -0.1081183 0.036189724 -0.08687611 0.28196302
000100 7d 8d 29 3e 80 5f ef bd 1a 68 db 3d e4 74 8f bb
       0.1655788 -0.11688137 0.10713215 -0.004377948
000110 da 8c 3c 3d 85 e3 13 3e 88 52 1e 3e b2 4f 36 3e
       0.046032764 0.1444226 0.1546117 0.17803839
000120 6e fa 7b 3e 5a 32 c2 bd 1f 8a 12 3c 4a a4 93 bd
       0.2460725 -0.0948226 0.008944063 -0.0720907
000130 08 fb 88 3c d2 23 3e 3d 82 19 34 3e 16 a8 bc bd
       0.016721264 0.04642088 0.17587855 -0.09211747
000140 b1 71 d1 3c 84 e6 3e bd b2 3e 11 bd 57 10 22 3e
       0.025566908 -0.046606556 -0.03546018 0.15826546
000150 5c 54 43 3d 63 8c 1c bd e5 50 6b bd b7 60 8d bd
       0.047687873 -0.03821982 -0.057450194 -0.069032125
000160 81 f9 17 3e 75 b7 26 3e 0b 7b 18 be 09 1d 40 bd
       0.14841272 0.16280921 -0.14890687 -0.04690269
000170 48 cf 8b 3d 1a c3 d1 3d 68 ad 96 bd 14 af 92 bb
       0.06826645 0.10242291 -0.07357293 -0.0044764373
000180 91 d1 5a 3e 88 31 76 3d 15 67 58 be d0 28 ba 3d
       0.21369006 0.06010583 -0.21133073 0.090898156
000190 b4 c7 2b bd a2 77 31 3e 8f 27 46 bd ad 28 bd bd
       -0.0419385 0.17330793 -0.04837757 -0.09236274
0001a0 1d 8e 01 3e f2 73 0f be 67 b9 13 3e 39 59 d2 bc
       0.12651868 -0.14009073 0.14426194 -0.02567731
0001b0 1b 25 55 3e b5 de 74 bd 0e 1e 87 be 3d 4c aa 3d
       0.20814936 -0.059782702 -0.26390117 0.083153225
0001c0 3e 24 f4 3d f0 08 54 3d ba 77 ee bd b8 65 9b bd
       0.11920975 0.051766336 -0.1164393 -0.07587761
0001d0 5f 47 0b be 29 1b 3b bd e8 ea db bd 86 ba 87 bd
       -0.13601445 -0.0456802 -0.10738164 -0.066273734
0001e0 54 e6 c5 bd 3f c6 3d be 5f c1 47 be 89 f0 0f be
       -0.09663072 -0.18532656 -0.19507359 -0.140566
0001f0 cc d9 f1 3d 8a fb 65 be 53 54 a4 bd 88 5f 03 3e
       0.118091196 -0.22459236 -0.08023896 0.12829411
000200 8d e7 cf 3d 68 e9 f2 bd 25 49 39 be 52 93 a8 3d
       0.10151587 -0.11860925 -0.18094309 0.08231224
000210 aa 92 f7 bd 03 f8 b2 3d fc e8 a0 3d af 75 5f be
       -0.12088521 0.08738711 0.07856938 -0.21822236
000220 18 9b 53 3d c8 73 7a 3e bd c4 20 3d 3c 4b f8 3d
       0.05166158 0.2445823 0.039250124 0.12123725
000230 1d 15 23 be d3 0b 23 be 60 5b 53 3d 0f 92 54 bd
       -0.15926023 -0.1592248 0.051600814 -0.051897105
000240 10 8b 87 3c 66 05 eb 3d cf 3f 3d 3e ed 93 a7 bc
       0.016545802 0.11475639 0.18481372 -0.020456279
000250 37 87 c7 bd 8c 6c 29 3e e6 e9 1d be 42 af 4c 3d
       -0.09742587 0.16545314 -0.15421256 0.049971826
000260 6f bd aa bd 24 62 b6 3b 01 08 c5 bd c0 e5 e3 3c
       -0.08336913 0.0055658985 -0.09620667 0.027819514
000270 2b 45 35 3e 67 ef 77 bd 98 43 f9 bd 5c b2 02 3d
       0.17702167 -0.060531046 -0.121710956 0.031908378
000280 c6 5d 34 3c 53 b5 47 3e dc 62 8f 3e c4 0f 04 3d
       0.011008685 0.19502763 0.2800511 0.032241598
000290 80 e4 1e 3b 20 1b a8 bd a6 58 34 3c b2 2a ce bc
       0.0024245083 -0.08208299 0.011007464 -0.025166843
0002a0 19 fc 06 3c cf b4 a7 3c 88 a1 80 3e ea e0 16 bc
       0.008238816 0.020471958 0.2512324 -0.009208897
0002b0 41 07 60 3e 73 14 1b 3e d4 a5 90 3e 35 de 92 bd
       0.21877767 0.1514452 0.28251517 -0.07171289
0002c0 4c a9 38 be 2a 51 91 3d 9c 5b a4 bd 0d d6 e1 bd
       -0.18033332 0.07095559 -0.080252856 -0.11027155
0002d0 47 54 29 3d 78 1f 6b 3e 87 42 58 3c 57 73 f8 3b
       0.04134014 0.22961223 0.013199455 0.007582109
0002e0 80 c8 6a 3e 18 11 7e bd 5d 9b 2e be 95 6e 2a 3e
       0.22928047 -0.06202802 -0.17051454 0.16643746
0002f0 7b 3a 16 3e ae 15 dd bd 03 d8 f8 3d ce e8 3b 3d
       0.14670746 -0.10795151 0.12150576 0.045876317
000300 61 de f0 3d 28 34 16 3d b0 e8 56 bd 4f 84 f5 bd
       0.117611654 0.036670834 -0.052468 -0.119881265
000310 dd 95 c8 bc 30 3d 43 3b 67 69 f5 bc b9 d3 c0 bc
       -0.024485523 0.002979111 -0.029957486 -0.023538457
000320 f5 75 8c bd 70 c4 b3 3c 98 a7 e2 ba f7 f8 2f 3e
       -0.06858436 0.021944255 -0.0017292378 0.17184816
000330 ab 2d 22 bc 96 e2 22 be 19 fb 0f 3e 44 da da 3d
       -0.009898583 -0.15906748 0.1406063 0.10686162
000340 55 6f 4c be 9b b8 8e 3d 9e c7 b8 3c 8f cf 10 bd
       -0.19964345 0.069688044 0.022556122 -0.035354193
000350 8e df 49 bc af d3 88 3d e0 51 ec 3d 7d 22 e5 bc
       -0.012321366 0.066810004 0.11539054 -0.027970547
000360 a0 aa f8 bc df 26 a1 bd b6 a2 f7 bc f2 c2 91 bb
       -0.030354798 -0.07868742 -0.030228954 -0.004448288
000370 a7 10 13 be 4a 5b 13 3e 49 14 29 bd 80 8b 8a 3d
       -0.14361821 0.14390293 -0.04127911 0.06764889
000380 42 14 1d be 73 09 6e 3e 67 b9 2e be 56 29 8e 3c
       -0.15339759 0.23245792 -0.17062913 0.017353695
000390 8d 75 2b bd e8 0c 7d bd 41 14 c1 bd f1 f5 a9 3d
       -0.041860152 -0.061779886 -0.09427691 0.08298863
0003a0 8d ff f1 3d ca 85 ac bd f9 a5 6a bd 55 9f 09 3e
       0.118163206 -0.08423956 -0.05728719 0.13439687
0003b0 2e e2 03 3e f3 c2 77 bd aa e8 29 3e a0 17 24 be
       0.1287925 -0.060488652 0.1659266 -0.16024637
0003c0 4b b5 ea 3c 72 67 c0 bb 34 cb cf bc 93 26 f9 bd
       0.0286509 -0.0058717066 -0.02536545 -0.121655606
0003d0 90 d2 1e be f9 48 8d be 75 f2 11 bd 99 42 11 bd
       -0.1551001 -0.27594736 -0.035631616 -0.035463903
0003e0 6e c7 04 3e 7a 34 bb 3c bb b7 c9 bc 48 f3 26 bd
       0.12966701 0.022852171 -0.024623742 -0.040759355
0003f0 c8 29 a9 3d df bf fd 3d 25 27 40 be 6f e7 6b 3d
       0.08259922 0.12390112 -0.18764932 0.05759376

bias f4 [20]
000000 1c 88 97 3d 17 7d ea 3b 36 dc 13 3e 64 73 a3 bb
       0.07399008 0.007156025 0.14439473 -0.004988121
000010 24 da 93 3d db 0f 6b bc 3f 65 84 3e 15 7a c6 bc
       0.072193414 -0.014347042 0.25858495 -0.024228135
000020 d0 dd 6c 3b da 8e 2c 3e 7e 93 56 3e 63 e3 80 3d
       0.0036142953 0.16851369 0.20954701 0.062933706
000030 b6 8c 3a 3e aa b3 17 3e c7 fe 81 bd 2b 6b 0e 3e
       0.1821774 0.1481463 -0.06347423 0.13908069
000040 26 2b 52 be a2 46 4a 3e db 30 d0 3c 33 c4 43 3e
       -0.20524272 0.19753507 0.025413921 0.19117813

weight f4 [15, 20]
000000 eb 5c 84 bd b7 62 14 3e 74 79 93 be 27 be bb 3d
       -0.06463035 0.14490782 -0.288036 0.09167128
000010 30 d4 f4 bd e3 a4 5e 3e 69 2d 4b 3e 48 32 cc 3c
       -0.11954534 0.21742587 0.19841541 0.02492632
000020 de f5 a8 3d b1 df b6 3c 23 3e 6b 3d d3 01 28 3e
       0.082500204 0.022323461 0.057432305 0.16406946
000030 cb 3d 03 be 9e c7 95 3c 0b b8 9f 3d 35 bf c3 bd
       -0.12816541 0.018283661 0.07798775 -0.09557954
000040 8d a2 e4 bd df 79 2e 3e 12 d9 d6 3c 9d 9e 8d be
       -0.111638166 0.17038678 0.026226554 -0.27660075
000050 16 be 5e be 78 69 2a 3e d1 8e 9b bd c4 38 84 bc
       -0.217522 0.16641796 -0.075955994 -0.01614035
000060 e1 3c 08 bd 6b 64 c4 bd 43 19 aa bc 66 f0 7b bd
       -0.033261184 -0.09589466 -0.020763999 -0.06150856
000070 f7 e2 13 3e 2c eb 9d be 89 a6 14 3e e3 ea 11 3e
       0.14442049 -0.30843484 0.14516653 0.14249758
000080 d4 42 9b 3d 49 e1 0c be 1d 4e 5f 3e 4e b0 ab 3d
       0.07581106 -0.13757814 0.21807142 0.08383237
000090 8c c4 8b 3e 92 23 6c 3e 04 e1 b6 3c d0 99 5b be
       0.2729839 0.23060444 0.022324093 -0.21445394
0000a0 e0 0c 76 3d 0c 43 8f be 6a ce 84 bd 94 ed 2d 3b
       0.060070872 -0.2798084 -0.06484683 0.0026539313
0000b0 70 4f 14 3e 96 67 12 3e 8e 48 49 3c 4a 89 5a 3e
       0.14483428 0.14297327 0.012285365 0.21341434
0000c0 70 83 40 bd a5 ee e1 3d 89 f1 f7 bd 16 f5 43 be
       -0.04700035 0.11031846 -0.12106616 -0.19136462
0000d0 9f be 2d 3d dc a4 9b bd ee e0 32 be 1a 35 14 3e
       0.04241812 -0.07599804 -0.17468616 0.14473382
0000e0 1d a9 13 be 1f 77 42 be 19 30 e1 bd a2 0e d7 3d
       -0.1441998 -0.18990754 -0.10995502 0.10500838
0000f0 51 bc 69 bd fc 74 23 3d fe 03 6b be 56 33 71 be
       -0.05706436 0.039906487 -0.22950742 -0.2355474
000100 0c 1b 33 bd 52 82 56 3e 4b 5d a5 3d f1 2d e8 3d
       -0.043726966 0.20948151 0.08074435 0.11336888
000110 29 0b 4e 3e 3f c5 4d be e1 2f b8 bb ed 69 98 3d
       0.20121445 -0.20094775 -0.005620942 0.07442079
000120 0b 7e 7f bc 6c b4 30 be 28 be 93 3e ad e2 e7 3d
       -0.015594016 -0.17256325 0.28856015 0.11322532
000130 56 45 1b bd 99 28 42 3e da a6 53 3e 43 9c 59 be
       -0.03790792 0.189608 0.20669118 -0.21251015
000140 b8 25 10 3e 7e b4 98 3d 85 9c ba 3d f1 09 99 3e
       0.14076889 0.07456301 0.09111885 0.29890397
000150 84 d0 2e 3e e8 34 9a bd 4f 61 6a be c5 b1 d1 3c
       0.1707173 -0.07529622 -0.22888683 0.025597462
000160 ce 88 6c be 1e 64 8f 3e 29 24 d7 bc 97 c7 10 be
       -0.23099062 0.2800607 -0.02626236 -0.14138637
000170 66 7e 97 bd 5f c8 fa 3d 53 44 75 be 60 67 a6 bd
       -0.073971555 0.12245249 -0.23951845 -0.08125186
000180 ee 6d a1 bd b3 27 0e 3e eb a5 57 3c 72 32 dc bd
       -0.078822955 0.13882332 0.0131621165 -0.10751809
000190 e0 f5 d8 bd 5b 11 98 3d 6b d0 fe bd 9f 65 9f be
       -0.10593772 0.07425185 -0.12442096 -0.31132218
0001a0 04 21 16 be 57 1b 69 3e 80 4f e4 bc 3d 77 93 bb
       -0.14661032 0.22764336 -0.02786994 -0.0045002983
0001b0 85 ca b7 3d db 3e 92 be f7 d8 80 be dc 27 96 bd
       0.089741744 -0.2856358 -0.2516553 -0.07331821
0001c0 75 d6 0e 3e 91 71 09 be d4 d6 68 bd 16 eb 8c 3e
       0.13948996 -0.13422228 -0.0568455 0.27523106
0001d0 89 97 83 bd cd 51 00 be c4 a8 ae bd a4 83 3c be
       -0.064253874 -0.12531205 -0.08528283 -0.18409592
0001e0 b2 4b d6 bd 99 73 2b be 83 0c 75 3e d6 e2 99 3e
       -0.104636565 -0.16743316 0.23930554 0.30055875
0001f0 28 3f 8c 3d cd eb 06 be 34 a6 c3 3d 77 f8 78 3d
       0.068479836 -0.13175888 0.09553185 0.06078383
000200 e7 04 04 be 62 f2 6f bd 8c 4d 25 3d 09 b3 dc bd
       -0.12892495 -0.058580764 0.040357158 -0.10776336
000210 89 80 b4 bc a1 f4 30 3e a1 70 65 be e6 71 39 bd
       -0.022033947 0.17280819 -0.22406246 -0.045274638
000220 b1 07 b3 bd da 0f 39 be b5 2a 64 bd ab 8a 26 3d
       -0.087417014 -0.18072453 -0.05570479 0.040659588
000230 31 88 e3 3d 7d 80 b5 3d 80 52 dc bd e8 4c a2 3d
       0.11109961 0.08862398 -0.10757923 0.07924825
000240 3a 01 24 3d 3f b7 46 3d 9f 85 12 3c fe 88 2e be
       0.040040232 0.0485146 0.008942991 -0.17044446
000250 b5 e3 29 3e db 24 83 be dc fd 81 be 10 41 8a bd
       0.1659077 -0.25614056 -0.25388992 -0.06750691
000260 25 b5 2b bd 7a 12 24 3e 0c 24 7e 3e 6e ef 8f bc
       -0.0419208 0.16022673 0.24818438 -0.017570224
000270 0d 8a 45 3e cc 44 b7 bc 52 8a 15 3c 3f 54 91 be
       0.19290943 -0.022371672 0.009127216 -0.28384587
000280 c0 c4 fa 3d 0b 33 40 be 7d dc 06 3e 54 5d 76 3e
       0.12244558 -0.18769471 0.13170047 0.2405904
000290 4e 4d f6 bd 21 1f 4a 3c 62 6e 1c 3e 46 33 b2 bd
       -0.120264634 0.012336523 0.15276483 -0.08701186
0002a0 28 71 e7 bc 46 fa 77 3e ac 63 f4 3d 57 77 7f be
       -0.0282522 0.24216565 0.119330734 -0.24947868
0002b0 e5 40 53 bd f3 a8 1b 3e a3 63 ad 3d 5a 0c 9c bd
       -0.05157556 0.15201168 0.0846627 -0.076195434
0002c0 76 a0 1a be 9f bb c5 bc 4a 9c 90 be f6 c7 f4 bd
       -0.15100273 -0.024137316 -0.2824424 -0.11952202
0002d0 27 2f 44 be 6d 51 56 3d 74 06 d7 bd cf 31 8e be
       -0.19158612 0.052323747 -0.10499278 -0.27772376
0002e0 17 69 e1 bd 36 84 ad bc 6b c2 8d 3d 37 6c b1 bd
       -0.110063724 -0.021181207 0.06921848 -0.086632185
0002f0 c0 f8 9a 3d 8f 2c 00 be a3 72 63 be b7 3a 8a 3e
       0.075669765 -0.12516998 -0.22211699 0.2699792
000300 97 08 7b bd a7 c7 ea bc f3 07 96 3d 4f ad 87 3e
       -0.06128749 -0.028659655 0.07325735 0.2649941
000310 5f 03 89 3d c3 66 e5 bd 54 dd 83 bd b7 d7 4c be
       0.06690096 -0.11201241 -0.06438699 -0.20004164
000320 c7 48 b8 bc 53 60 86 be 29 78 b4 bd 43 af 83 3e
       -0.02249564 -0.26245365 -0.08811981 0.25719652
000330 98 bb 1d 3e 40 2c 77 bc b6 b4 87 3c ac 0c 92 3e
       0.15403593 -0.015086234 0.016565662 0.28525293
000340 13 45 ec bc 2d 0e 18 3e 6e be a0 3d ab 7c 27 be
       -0.02884153 0.14849158 0.078488216 -0.16356151
000350 25 df a1 bd 4a 0f e2 3c ce b5 ac 3d ad e9 4b be
       -0.079038896 0.027595181 0.08433114 -0.19913359
000360 3d 42 b9 bd e1 09 fa 3d 49 93 e6 bc c0 a2 fa bd
       -0.09045837 0.122089155 -0.028146403 -0.12238073
000370 16 26 b4 3d eb d6 61 3e 72 74 ac 3d 12 59 d9 3c
       0.08796327 0.22054641 0.08420648 0.02653173
000380 bc af 09 be e6 48 95 bc fd 29 f3 bc d9 d8 95 3c
       -0.13445944 -0.018223237 -0.029683108 0.018291878
000390 cf e5 87 3e f4 37 6e be 78 60 22 be ec 70 8b 3e
       0.26542518 -0.23263532 -0.15857112 0.2723459
0003a0 d3 cf 19 3e 04 57 e4 bd c5 28 93 3e 1d 37 bf 3c
       0.15020685 -0.111494094 0.28742042 0.02334171
0003b0 9a 4f d1 bd 80 d3 17 be cd c0 77 bc 3f 09 51 bd
       -0.10220261 -0.14826775 -0.015121651 -0.05103421
0003c0 c8 b0 ae bc 93 3d c9 bd 41 67 9c 3d 4f 03 87 3e
       -0.02132453 -0.098261975 0.076368816 0.26369712
0003d0 e9 6a 33 bb 31 dc 3c be 88 c1 2e bd 87 7f ce bd
       -0.0027376956 -0.18443371 -0.042665035 -0.10082918
0003e0 b3 17 99 bd fb 07 42 3e 48 77 11 be df d0 b6 3d
       -0.074752234 0.18948357 -0.14205658 0.08926558
0003f0 b5 d9 da 3d 4e 0d ad 3d c3 b6 c2 3c 5e 85 5c 3c
       0.106860556 0.08449803 0.023768788 0.013459532

bias f4 [15]
000000 54 03 82 3e 8e ff 2e bc 7a 31 39 bd cd af 87 3e
       0.25393164 -0.010681046 -0.0452132 0.26501313
000010 ad ab ca 3d 79 bc 8f 3e 35 10 55 be 98 b2 bd 3c
       0.09896026 0.2807348 -0.20806964 0.02315645
000020 19 8d 49 bb 53 d6 45 bc fe 59 14 be 31 8c 8d 3e
       -0.0030754267 -0.012075025 -0.14487454 0.2764602
000030 a4 6d 3a be fc 4e 85 be 80 59 6d 3e
       -0.18205887 -0.26036823 0.23178673

weight f4 [15, 15]
000000 50 99 37 3e be d0 3d be 5d 95 89 3e 57 37 ec 3d
       0.17929578 -0.1853666 0.26871768 0.11533993
000010 07 5e 80 3e 26 8f 14 be e6 dd 56 3e 95 48 8b bd
       0.25071737 -0.14507732 0.20983085 -0.06800953
000020 45 04 b1 bd f2 91 7b bd 37 a2 57 3d b7 e2 48 be
       -0.086433925 -0.06141848 0.052644935 -0.19617735
000030 05 ed 87 bd 19 55 23 3e c2 f9 79 3c 30 a5 ac 3e
       -0.06637005 0.15950431 0.015257301 0.33719778
000040 bf 72 ca 3b b6 47 80 be 1c 53 3d 3e ba 29 c0 bc
       0.0061782296 -0.2505471 0.18488735 -0.023457397
000050 00 16 a8 3e 35 34 30 3c 2f f0 64 3e 94 ab 59 be
       0.32829285 0.010754635 0.22357248 -0.21256858
000060 ef 24 5c 3e 55 cf 41 3d 71 63 87 bc b4 9a a6 bd
       0.21498464 0.047316868 -0.01652691 -0.08134976
000070 01 42 62 be 7e af f2 3c c2 06 14 3e ea f6 83 be
       -0.22095491 0.029624697 0.14455703 -0.25774318
000080 b5 f4 a3 3e 55 8b 87 be d1 f0 54 3e ff 1b 2c be
       0.32022634 -0.2647349 0.20794989 -0.16807555
000090 2d 63 3b 3d d2 a7 0c be 00 d9 a5 3d 41 3a d1 bd
       0.04574888 -0.13735893 0.0809803 -0.10216189
0000a0 51 26 bc bd 8a a7 78 be 22 5f a2 bc e0 bd c4 3d
       -0.09186996 -0.24282661 -0.019820753 0.09606528
0000b0 f8 15 8d 3d 28 10 fa bd ed 6b 57 3e f6 82 74 be
       0.06888956 -0.12210113 0.21037264 -0.23878083
0000c0 11 25 4d 3d 8c 66 47 3d ca af bc bd f1 8b a2 be
       0.050084177 0.04868178 -0.092132166 -0.31747392
0000d0 79 10 70 3e a2 7d b0 be 60 44 26 3e 1f 97 ac be
       0.23443784 -0.3447085 0.1623702 -0.33709046
0000e0 d2 61 50 3e 91 79 80 3d d4 0f 52 be db a9 0a 3e
       0.20349815 0.06273187 -0.2051385 0.13541357
0000f0 20 0c 9d be cd 52 64 be 89 bb f0 bb a7 6b 86 be
       -0.30673313 -0.22297211 -0.0073465747 -0.26254007
000100 7e 97 51 3e a0 84 78 3b 86 85 1e 3e 01 76 8e be
       0.20467946 0.0037920848 0.15480623 -0.27824405
000110 4a e4 f4 bd c0 f0 24 3e e7 27 73 3e 36 98 52 be
       -0.11957605 0.16107464 0.2374569 -0.20565876
000120 02 d7 2c 3e 8a 50 0b be 33 9d 35 bc d2 64 96 3e
       0.16878894 -0.13604942 -0.0110848425 0.29373795
000130 49 73 90 3d a1 5a 16 be 69 15 00 3e 02 9f 15 be
       0.07053239 -0.1468301 0.12508167 -0.14611438
000140 5d 23 86 3e 2d ff 09 3e e1 c8 3a 3e 79 dc fa bd
       0.26198855 0.13476248 0.18240692 -0.12249083
000150 dd ee 9c 3e 16 9a 0d be 2e 19 09 bc ca 47 49 be
       0.30650988 -0.1382831 -0.00836782 -0.19656292
000160 ae 95 fb bd 80 14 8b bd fd 8b 62 3e a0 a3 01 3e
       -0.122844085 -0.067910194 0.22123714 0.12660074
000170 22 3a ad be e6 56 2d 3d ff 6f 09 be 7c 07 ad 3e
       -0.33833414 0.0423192 -0.1342163 0.33794773
000180 c0 ee 98 bb ec 6e 16 be 02 27 9d be 5b 52 ca 3d
       -0.004667133 -0.14690751 -0.30693823 0.09878989
000190 25 1b 15 be 46 e2 b0 3d 36 0a 7e be 19 f5 7e be
       -0.14561136 0.08636908 -0.24808583 -0.24898185
0001a0 3c b4 fa 3d 41 5c 8c bd aa c1 4a be 21 1f 29 3e
       0.12241408 -0.068535335 -0.1980044 0.16515781
0001b0 7f 64 45 be bd aa 03 be 0a 27 9e 3e e7 ad 4f be
       -0.19276617 -0.128581 0.3088916 -0.20281182
0001c0 74 b0 26 be 7b 5a a3 bd 4f 3b 9e 3e 28 a6 75 be
       -0.16278249 -0.07976242 0.30904624 -0.23989165
0001d0 07 70 7c 3d 18 4b 30 bd 70 1e 48 3e 88 ca 34 3e
       0.061630275 -0.043040365 0.19542861 0.17655385
0001e0 49 2d cf 3d 77 9f 13 3e 4f 20 82 be 24 6c 54 bd
       0.10116059 0.144163 -0.25415275 -0.051860943
0001f0 e2 36 35 be 97 14 1f be 58 7c 84 be d7 7d 4f 3e
       -0.17696717 -0.15535198 -0.25876117 0.20262848
000200 d0 c7 96 be 55 70 f4 bd f3 e9 79 bd e8 50 22 3e
       -0.2944932 -0.11935488 -0.061014127 0.15851176
000210 fb 7f 89 be f3 85 9f be 3a 0c 91 3e 4c ce 83 be
       -0.26855454 -0.31156883 0.2832964 -0.2574333
000220 2f ab 89 bd 77 6f 06 3e 24 00 8a 3d 7e 38 ab 3e
       -0.06722104 0.13128458 0.06738308 0.33441538
000230 29 b7 9d bd 49 3b 19 3e 8b 15 80 be 68 a3 36 3d
       -0.07700951 0.14964022 -0.25016436 0.04458943
000240 fe 0a 9c be 0d 13 82 3e f4 77 85 3d ab 7f 15 3e
       -0.30477136 0.2540516 0.0651702 0.14599483
000250 8e 48 17 be 88 d1 e7 bd 78 e4 74 be 77 ec f3 bd
       -0.14773771 -0.11319262 -0.23915279 -0.119103365
000260 24 83 82 3e 35 4b 8d 3d f3 1f a6 3e bd 80 18 be
       0.25490677 0.0689911 0.3244625 -0.1489286
000270 ae 1c 86 3e 72 7f 0a be 7b 04 5a 3d 5d f3 4f be
       0.26193756 -0.13525179 0.05322693 -0.2030768
000280 aa b7 12 3c 68 53 fa 3c 39 c9 35 3d bd 1d a2 3e
       0.008954922 0.03055735 0.044381354 0.31663314
000290 5f 42 14 3e 2e db ec 3b 6d 04 61 be b0 06 cc 3d
       0.14478444 0.0072282767 -0.21974345 0.09962213
0002a0 1d 5d 0a 3d 71 f3 d3 bb 39 ea 5c be c9 c9 8a 3e
       0.033780206 -0.0064682295 -0.21573724 0.27107075
0002b0 60 6a a5 3c 08 a8 09 3e 39 15 3b be 98 7b 7c 3e
       0.020192325 0.13443005 -0.18269815 0.24656522
0002c0 c4 bc 27 3e 11 f8 03 3c 59 89 0d be 5f 64 0d be
       0.16380602 0.008054749 -0.13821925 -0.1380782
0002d0 0c 27 16 be f2 70 6d 3e ff 56 a2 3c b6 65 40 3e
       -0.14663333 0.23187616 0.019816874 0.187888
0002e0 b1 5a f2 3d 9c 9f 8d 3e 05 61 8c 3d f0 b1 02 3c
       0.11833704 0.27660835 0.068544425 0.007976994
0002f0 51 ec 90 bc 75 a2 94 3e 2d fb 05 be 52 a6 4b 3e
       -0.01769081 0.29030195 -0.13084097 0.19887665
000300 7f 7c 61 3e ba 58 07 bd f3 01 66 3e ee a3 36 3c
       0.22020148 -0.0330436 0.22461681 0.011147482
000310 79 54 0b be f4 57 93 be c2 19 84 3e 9d 24 94 be
       -0.13606443 -0.2877804 0.25800902 -0.28934184
000320 b3 2d af 3e fa c1 7b be c0 42 0f 3e d6 a9 95 be
       0.34214553 -0.24585715 0.13990307 -0.29231137
000330 7f 32 dc 3b 86 d8 ab 3d 31 6c 77 3e 3e b4 47 be
       0.006719887 0.08390908 0.24162365 -0.1950235
000340 0e 10 3f 3d 61 9e a5 3e 19 83 7a 3e 82 59 a7 bd
       0.04664617 0.32347396 0.24464072 -0.08171369
000350 32 56 e7 3d 9a 89 9c bd 72 93 9b be 4a 6d ff 3c
       0.11295737 -0.07643433 -0.3038593 0.031180043
000360 42 43 80 be fc 4b 9c 3e cc 98 72 be 43 72 8b 3d
       -0.25051314 0.3052672 -0.236911 0.06808903
000370 4d 60 94 be e4 24 9b 3e 9f fb a3 bc ec e3 33 be
       -0.28979722 0.30301583 -0.020017443 -0.17567414
000380 43 60 82 3e
       0.25464067

bias f4 [15]
000000 4a a0 aa bb 58 33 e6 3d c1 d3 61 be b4 f9 2b be
       -0.005207096 0.11240262 -0.22053434 -0.16794473
000010 94 1a e5 bd df a3 7c 3c e3 62 9c bd 4e 85 be 3d
       -0.1118671 0.015419929 -0.07636049 0.093027696
000020 60 c4 ef bd 61 fb 14 be 20 3d bb 3d fc fa 12 bc
       -0.117073774 -0.14549018 0.09142518 -0.008970972
000030 9a 47 17 3e 11 a8 8c 3d d0 55 85 3e
       0.14773408 0.068679936 0.26042032

weight f4 [15, 15]
000000 d8 cc 72 3d 3a a1 89 be a7 5b 27 be 62 1b 21 be
       0.059277385 -0.2688082 -0.16343556 -0.15733102
000010 d8 26 dd 3c cd 66 82 3d ce 81 15 be 49 10 21 3e
       0.026996061 0.06367264 -0.14600298 0.15728869
000020 94 0a a1 3c 23 02 9d be 76 61 66 3e 0c 75 42 be
       0.019658364 -0.30665693 0.22498116 -0.18989962
000030 93 3d 16 3e 55 4d d3 3c 0f 4e 07 bd 19 38 4a 3d
       0.14671926 0.02579371 -0.033033427 0.049369905
000040 45 54 6c be 41 76 2a 3e 5c 86 e4 3d 44 89 55 3e
       -0.23079021 0.16646673 0.111584395 0.20853144
000050 67 3e 29 be eb 18 98 3e 89 37 6f bd 3f 50 1f bd
       -0.16527711 0.2970651 -0.05840257 -0.038894888
000060 9e 0c 17 be 8d 2c 4c 3e c8 81 f4 bd f9 08 87 bb
       -0.14750907 0.1993887 -0.11938816 -0.0041209427
000070 47 59 06 be 9f 9c c8 bd 10 53 6e be a8 f8 80 be
       -0.13119994 -0.09795498 -0.23273873 -0.2518971
000080 8c 54 c1 3d 3e 35 52 3d 74 c1 3d 3d bc ce 81 be
       0.09439954 0.051320307 0.04632707 -0.25353038
000090 7b d5 9b bd 78 04 d8 bb 6d 51 18 be 21 54 4a be
       -0.076090775 -0.0065923296 -0.14874811 -0.19758655
0000a0 ee 6b 8f 3e f6 7e 87 be 74 8e 15 bd 0f 46 fc 3d
       0.2801203 -0.2646405 -0.036512807 0.1231805
0000b0 ca fd 1d be 7c 54 ff 3d 08 3c a9 3d 53 64 92 3e
       -0.15428844 0.12467286 0.08263403 0.28592166
0000c0 53 2d 97 be 73 53 dd 3c 2c 44 f7 3d 3f 42 33 3c
       -0.29526767 0.02701733 0.1207355 0.010941087
0000d0 4c 17 ac be 3c cc 07 be 6f b3 94 be 7e 33 6e 3e
       -0.33611524 -0.13261503 -0.29043147 0.2326183
0000e0 fc 7c 59 be 64 84 d4 3d dc 91 9c 3d c3 f4 13 bd
       -0.21239084 0.10376814 0.07645008 -0.036122095
0000f0 bf 86 b4 be 9b a8 3f 3d 7c 70 07 be c4 d1 f0 3d
       -0.35259053 0.046791654 -0.13226503 0.117587596
000100 ba 9e cb 3c 66 aa bf 3d 55 05 63 3e 94 ef 30 3d
       0.02485596 0.09358673 0.22170003 0.04319723
000110 98 82 18 3d 69 8f 74 3d 74 39 c8 3d 8b 16 25 be
       0.03723392 0.05970708 0.09776583 -0.1612188
000120 4b 0c 02 3d ba b1 23 3d 5d de 19 bd 06 31 a5 3d
       0.031750005 0.039964415 -0.037565578 0.08065991
000130 d4 b2 98 bd d9 2b 25 be a3 6f d5 bc 42 a5 b0 3e
       -0.07455984 -0.16130008 -0.02605421 0.34501082
000140 94 37 d5 bc 5b ca 53 3e 27 eb 37 ba 83 b6 37 3e
       -0.026027478 0.20682661 -0.00070159364 0.17940716
000150 6e 2d 29 3d f3 c0 48 3e 40 69 ae 3c d7 20 1d 3d
       0.04130309 0.19604854 0.021290421 0.038361397
000160 c2 84 ff 3d 35 a2 12 be da 44 9f be 9b 3b 21 be
       0.124764934 -0.1431969 -0.31107217 -0.15745394
000170 f5 b2 96 3e ee 2c a4 be 8c 62 c4 b9 7d c4 26 3d
       0.29433408 -0.3206553 -0.00037457456 0.04071473
000180 b4 67 54 3e fb 2e 04 3d 1d 83 26 3e e4 29 9f ba
       0.20742685 0.032271367 0.16260953 -0.0012143222
000190 21 39 96 3e 8a 3d 8a be a8 2f 6e bc b9 a3 32 be
       0.2934046 -0.27000076 -0.014537729 -0.17445268
0001a0 d8 b6 28 be 53 c9 a9 bd ba 03 3e 3d 51 75 21 3e
       -0.16476 -0.08290353 0.046390273 0.15767409
0001b0 ed ca 85 bd 7a 46 bf 3d e3 92 49 be 13 9a 98 3e
       -0.06532846 0.09339614 -0.19684939 0.2980505
0001c0 62 3c 81 be 79 d7 44 bd 94 e5 52 be 66 62 f3 3d
       -0.2524138 -0.048057053 -0.2059539 0.118840024
0001d0 a6 59 00 3e 89 43 15 be 2c 3e 9a 3c 5a f4 64 be
       0.12534198 -0.14576544 0.018828474 -0.22358838
0001e0 4d 47 17 bd bd 6d 33 3c b2 b6 a3 bd e6 5a 20 3e
       -0.036933232 0.010951457 -0.07993831 0.15659675
0001f0 26 46 50 bd cb ab 27 be 3b 74 24 bd 88 92 9c be
       -0.05084815 -0.16374128 -0.04014991 -0.30580544
000200 3c 7d 86 3e 66 f8 65 3d 32 6a ac 3e f8 73 48 be
       0.2626742 0.056145094 0.3367477 -0.19575489
000210 ee 75 54 3e 54 00 74 3e df 7a 53 bd 95 ed 61 be
       0.20748112 0.2382825 -0.05163085 -0.22063287
000220 6f 6c 68 3d fa a9 b7 bd af 2d 9c be a9 a3 90 3e
       0.056744035 -0.08967967 -0.30503604 0.28249863
000230 f5 ee 44 be 51 b5 4a 3e e4 48 1a 3e fb aa 0e bd
       -0.1923178 0.19795729 0.15066868 -0.03483103
000240 70 9e 45 be 1d 35 1d be c4 be ab be 00 19 ef bd
       -0.1929872 -0.15352292 -0.3354398 -0.1167469
000250 71 ef 2d bd 24 cd 13 3e 83 f8 06 bd 5d 6b 70 be
       -0.042464677 0.14433724 -0.032951843 -0.23478456
000260 f6 43 7a 3e 3d 4c 26 bd 20 c3 93 bd bb bc 3a 3d
       0.24439988 -0.04060005 -0.072149515 0.045590144
000270 b7 30 08 3e 41 aa 74 be e0 cf 42 3e ae f2 83 3d
       0.13299833 -0.23893072 0.1902461 0.06442772
000280 c3 37 1b be ab 8a 62 be 20 8e 48 3e a4 6c 03 3a
       -0.1515799 -0.2212321 0.19585466 0.0005013442
000290 ae 18 97 be c4 26 91 be f9 cf fe bc da 28 24 3e
       -0.29511017 -0.28349888 -0.031105028 0.16031209
0002a0 f7 b7 34 be c4 22 70 3e 21 03 98 3c 56 b7 45 3e
       -0.17648302 0.23450762 0.01855618 0.19308218
0002b0 4d 32 ad bd 64 9e ee bd 66 bc 34 be 87 e5 66 3e
       -0.0845686 -0.11651304 -0.17649993 0.22548495
0002c0 69 60 43 be 7d 74 c7 bc 93 7a 8a 3e ec d8 b4 bd
       -0.19079746 -0.024347538 0.27046642 -0.08830437
0002d0 36 a7 a4 be 04 7c 94 3d 4b f3 97 3e 5c c1 f1 bd
       -0.32158822 0.072502166 0.29677805 -0.118044585
0002e0 4d 41 9b 3e 61 64 14 bd cc 5c 0f 3e b8 c8 ed bd
       0.30323258 -0.03622854 0.14000243 -0.1161055
0002f0 96 90 8f bc c5 7d 54 be 88 53 c2 3d 7a 3f 82 be
       -0.017524999 -0.20751102 0.094885886 -0.25439054
000300 be 6a 31 bd c3 77 84 3d 79 90 2b 3d 6f 42 af bd
       -0.043314688 0.06468155 0.041885827 -0.08557593
000310 90 6f 46 be 31 59 52 3e 58 28 49 be 96 67 e3 3b
       -0.19378495 0.20541836 -0.19644296 0.0069398386
000320 8f ec 2e be fb f7 5b 3e cb ce 63 3d 86 5b 50 3d
       -0.17082427 0.21481316 0.055617135 0.050868534
000330 bc d9 45 3d 99 6e 59 3e 2f a9 d9 bd 91 0a 49 3e
       0.04830335 0.21233596 -0.10627972 0.19632937
000340 7b 26 1d be 13 f2 8a be 67 55 6f be b2 3d ee bd
       -0.1534671 -0.27137813 -0.23372422 -0.11632861
000350 80 7d 4e 3e 76 ad 34 3e 7d 45 17 3e 1c c9 4b be
       0.20165062 0.17644295 0.14772601 -0.19900936
000360 a2 c0 a9 bd 7e 6e 1d 3d 71 84 da bc 3c 75 3d be
       -0.08288695 0.03843545 -0.026674481 -0.18501753
000370 8d a7 95 3d a7 c1 d3 bd 9b d9 6c 3e 33 9e fe bd
       0.073073484 -0.10339671 0.23129885 -0.12432518
000380 38 25 22 be
       -0.1583451

bias f4 [15]
000000 d6 e9 a9 be ac 10 a7 3d 71 c1 77 bc de 97 92 be
       -0.33186215 0.08157477 -0.015121804 -0.2863149
000010 f7 a8 82 be 33 c1 8a be 71 6e b5 3d 15 24 3a 3d
       -0.25519535 -0.27100524 0.08858956 0.045444567
000020 4b 12 84 be fa 21 aa be 0a d4 db bc 39 d8 ad bd
       -0.25795206 -0.33229047 -0.026834507 -0.08488507
000030 2a 25 08 be 5d ce 1c 3e 1f 52 a5 be
       -0.13295427 0.15313096 -0.32289216

weight f4 [15, 15]
000000 b4 46 ac be b3 96 28 3e 8a f7 84 bc 8f 50 1d 3e
       -0.33647692 0.16463737 -0.016231317 0.15362762
000010 a8 23 0e be 0a 77 e7 3b c9 61 8a 3d b6 4b 68 3e
       -0.1388079 0.007063751 0.06756932 0.22685131
000020 46 43 19 3d 7f 08 a8 3c 98 25 9a be d6 ba 6a be
       0.037417673 0.020511864 -0.30106807 -0.22922835
000030 83 fa 58 bc 4b 31 63 bb 88 dd 65 3e e5 36 17 3d
       -0.01324332 -0.0034666832 0.22447789 0.036917586
000040 dd b0 9c bd 6b cf 7d 3e d3 2a b0 3d fd 4d 8a 3e
       -0.076509215 0.24786155 0.08601918 0.27012625
000050 d1 4c 90 be 3c 37 5f 3d 87 c6 ce 3d f6 46 ad bd
       -0.28183606 0.054496035 0.1009646 -0.084608
000060 53 75 87 3e ff ae 4d 3e a7 73 f6 3c 97 58 f3 bd
       0.264567 0.20086287 0.030084444 -0.118821315
000070 db 0d 98 bd 08 2f bc 3c b8 07 68 3e 50 22 8f be
       -0.07424518 0.022971645 0.22659194 -0.27955866
000080 fe 72 bb bd f3 06 cc 3a 1f ab 29 3e 8b 2f 90 be
       -0.091527924 0.0015566036 0.16569184 -0.28161272
000090 c0 af 5b be cc 34 53 be ae 10 73 be 3d 6f 31 be
       -0.21453762 -0.20625609 -0.23736832 -0.1732759
0000a0 c3 68 4d 3e 76 c4 31 3e 7d df 10 be fb 20 a5 bd
       0.20059495 0.173601 -0.14147754 -0.08062931
0000b0 9f a9 8e bd bb a8 48 3e df 58 d3 3c f3 a0 51 3d
       -0.069659464 0.19595616 0.025799213 0.051178884
0000c0 2a 6d 2e 3e 2c 30 0f 3e 2a e9 9e be e9 af 5e be
       0.1703383 0.1398322 -0.31037265 -0.21746792
0000d0 a2 5f f0 3c ec 46 a0 3d 9f 86 81 3d 52 1b 37 3e
       0.029342476 0.07826027 0.06324505 0.17881516
0000e0 4e b6 7e bd 69 14 51 be 8c d3 7e be 63 5b b8 3c
       -0.062185578 -0.20417942 -0.24885386 0.022504514
0000f0 d3 09 39 3e a3 00 3c be bf 1d 38 be 47 ef a0 bd
       0.18070154 -0.18359618 -0.17980097 -0.078581385
000100 e9 13 3c 3d ee 06 8c 3d a4 4e 4a be 8b 07 af 3d
       0.045917425 0.06837259 -0.19756562 0.085463606
000110 b8 12 7f be be 4a 7f 3e 45 4c 5b 3d e4 0b 4f 3e
       -0.24909484 0.24930856 0.053539533 0.2021938
000120 25 f0 76 be 68 ce 30 be c8 ce 2b bd f9 98 0b 3d
       -0.24115045 -0.17266238 -0.04194525 0.034081433
000130 c7 a4 15 be cb f2 a5 bd 83 8e ba bd 71 a7 89 3c
       -0.14613639 -0.0810295 -0.09109213 0.016803475
000140 e5 2b 84 3d f3 ba 52 be a0 ec e6 3d 4e fb de bc
       0.06453685 -0.20579128 0.112756014 -0.02721944
000150 ef 79 b5 3e 90 ee 33 3e b5 d6 e7 3d a4 20 2c 3e
       0.3544459 0.17571473 0.11320249 0.16809326
000160 a5 70 0a be f3 70 32 3d 61 9e 80 3d 0a 8e 50 3e
       -0.13519533 0.043564748 0.062802084 0.20366684
000170 00 5e 94 be e7 91 43 3e c0 0e 82 3d 58 75 84 3e
       -0.28977966 0.19098626 0.063504696 0.25870776
000180 7c 43 48 3e bb 96 ec 3d b7 b0 5b 3e 18 d1 cb 3d
       0.19556993 0.11552187 0.2145413 0.09951991
000190 73 17 81 be 72 d6 97 be d1 6c 98 3d 55 3d 3f be
       -0.25213203 -0.29655796 0.0744263 -0.1867574
0001a0 64 29 5b 3e 5b 9e 24 be 30 69 40 3e 72 1e dd 3d
       0.21402508 -0.16076033 0.18790126 0.107968226
0001b0 b5 6f a5 3e 9f 08 9b be 61 24 94 3c e1 72 af 3e
       0.32311788 -0.30280015 0.018083753 0.34267333
0001c0 77 17 58 3e c6 f6 72 3d 05 d0 2d 3e 7a 9b 52 be
       0.21102701 0.059317373 0.16973884 -0.20567122
0001d0 0e b6 c1 3d 1f 79 d8 bd 39 8f a9 3e 02 5b e6 bd
       0.09458552 -0.10569977 0.33117083 -0.11247827
0001e0 7b 66 20 be 98 f7 ef 3d 37 03 3d be cb de 96 3e
       -0.15664093 0.11717147 -0.18458258 0.29466853
0001f0 1c 7c 2b be e0 f0 39 3e 6e f4 e3 3d ea 4b c5 3d
       -0.16746563 0.18158293 0.11130606 0.0963362
000200 cb a1 01 be cf 5f 1d be 15 95 c2 bd 01 53 bb bd
       -0.12659375 -0.1536858 -0.095010914 -0.09146691
000210 fe 40 09 3e ff 92 aa 3d ce ac 88 3e 8f e4 57 be
       0.13403699 0.083288185 0.2669434 -0.21083282
000220 3b a0 8a 3d 55 75 90 be 72 55 c1 bd 8b af 4b be
       0.06768843 -0.28214517 -0.094401255 -0.19891183
000230 bb 78 9a 3e 62 ef fd bd 4e c2 a5 3d 79 7f 36 bd
       0.30170235 -0.12399174 0.08093701 -0.04455516
000240 88 72 d0 bd 78 53 76 be 3c de 05 be f8 d1 93 3e
       -0.10178095 -0.24055278 -0.13073057 0.2887113
000250 9d 6b 21 3e b4 93 79 3d 14 8b 72 be 46 fc 8e bd
       0.15763707 0.060931876 -0.23685867 -0.06981711
000260 c6 9f 22 bd c9 b1 70 3e 6a fe 67 be 9e a1 8f 3e
       -0.039703153 0.2350532 -0.22655645 0.28052992
000270 c8 24 37 3e 49 17 53 be 86 49 bf bd 83 49 9f 3c
       0.17885125 -0.20614351 -0.09340195 0.019444233
000280 31 f6 8c be 3c 2f c3 3d ef 42 93 3d 63 de 12 bc
       -0.2753158 0.095304936 0.07190501 -0.008964154
000290 5b f6 6c 3e 22 1b dd bb c1 9d 7e 3e 14 06 6b be
       0.23140852 -0.0067476192 0.24864866 -0.22951537
0002a0 3b 36 1c 3e 3f f2 95 3d 0b 27 ac 3c 6d 23 af 3e
       0.15255062 0.073215954 0.02101471 0.34206715
0002b0 e6 93 0c be 10 13 10 be f6 1a 32 3d 0d 40 fd 3d
       -0.13728294 -0.14069772 0.043482743 0.12365732
0002c0 2e 14 17 3e 5f ca 3c 3e 83 95 5c bb ab e4 a7 3e
       0.14753792 0.18436573 -0.0033658452 0.32791647
0002d0 6d 74 a0 bd ee ca 49 3d 46 32 81 bc 86 02 43 be
       -0.078347065 0.049265794 -0.015771043 -0.19043931
0002e0 50 39 25 3d a5 29 af bc 2f 3f b7 bc 72 43 8d be
       0.04033786 -0.021382162 -0.022368995 -0.2759052
0002f0 17 4c 41 be d4 f2 22 b7 44 c4 5b 3e 67 04 46 3e
       -0.18876682 -9.71249e-06 0.21461588 0.19337617
000300 f6 08 7c be 54 ab 88 be 74 38 1e bd b8 29 84 3e
       -0.24612793 -0.26693213 -0.038628057 0.2581308
000310 4c 6a cd bd f5 6a 52 3e e6 f8 ad 3c 33 1c 1b 3e
       -0.1003004 0.20548613 0.021236848 0.15147476
000320 4a d9 20 bd 08 26 04 be eb 37 c4 bd 67 5f 1f be
       -0.039269723 -0.12905133 -0.09580978 -0.15563737
000330 ca f4 bc 3d 8c 3e f5 3d 08 ee 37 bd b5 a9 54 be
       0.09226377 0.119748205 -0.04490474 -0.20767863
000340 2c 5a 81 bd 3a b0 34 be 10 92 29 3e 6c b0 0d be
       -0.06316027 -0.1764535 0.16559625 -0.13836831
000350 fe 4e 8f bd 9f 1a 8a 3e 60 1b 02 be 1a 2a 2f 3d
       -0.069974884 0.26973435 -0.12705755 0.04276476
000360 4a b2 ee bd 3d ac 6f 3e f4 0b 51 3e a4 fc 93 be
       -0.116551 0.23405547 0.20414716 -0.28903687
000370 e5 7f 14 be 1a 94 91 be dc 36 63 3e 30 57 97 3e
       -0.14501913 -0.28433305 0.22188896 0.29558706
000380 1e e3 f1 3d
       0.11810897

bias f4 [15]
000000 8d b7 19 3e c6 eb fb bc 69 7f 88 bd 95 21 16 be
       0.15011425 -0.030752074 -0.066649266 -0.14661248
000010 a0 a4 80 be b7 bd df bd f1 ff 46 3e 64 1b a8 bb
       -0.251256 -0.10924857 0.19433571 -0.0051302183
000020 68 e9 15 be 78 ee 86 3d b1 05 43 3e 6c 6a 89 3e
       -0.14639819 0.06588453 0.1904514 0.26839006
000030 d2 26 1c 3e 54 2b 47 be 5c da 7a 3e
       0.15249184 -0.19450122 0.2449736

weight f4 [20, 15]
000000 20 17 04 be da 8e 85 3d ef 56 4b bd d3 eb 29 3e
       -0.12899446 0.065213874 -0.049643453 0.16593866
000010 9f 8c a7 3d 51 50 7f 3e 3d c1 06 3e e6 3f df 3d
       0.08181118 0.24932982 0.13159652 0.109008595
000020 aa 06 af be a4 37 e0 bd 18 f2 89 3d 7d 25 97 be
       -0.34184772 -0.109481126 0.06735629 -0.2952079
000030 15 33 3d 3e 8d 57 93 3e b3 fe fa 3d 07 67 ee 3d
       0.18476517 0.28777733 0.12255611 0.11640745
000040 58 ed ba 3d 0d 7f a9 be 9a c8 c3 3d f1 37 4c bd
       0.09127301 -0.33104745 0.09559746 -0.049858037
000050 4f 5e 9c be 2b ba e8 3d 84 e0 95 bd 51 02 14 bc
       -0.30540702 0.11363634 -0.073182136 -0.009033755
000060 fe 7c f0 bc 24 09 e7 3d 5b e8 3b 3d f3 f8 b6 bd
       -0.029356476 0.1128104 0.04587589 -0.08934202
000070 12 5c ac 3d 2d a3 a5 3c 36 c3 9c be c9 ef 40 3e
       0.084159985 0.02021941 -0.30617684 0.18841471
000080 0d 9a 4f 3e 10 3a 93 3e c2 56 8f 3e 71 72 54 bb
       0.2027361 0.28755236 0.27995878 -0.0032416845
000090 3a 1a 99 be 88 d5 34 be 43 4d 86 bd 32 98 b1 be
       -0.29902822 -0.1765958 -0.06557705 -0.34686428
0000a0 f3 eb e9 bd b4 94 14 bc 5e c4 86 3e 75 b6 a6 3e
       -0.11421957 -0.009068657 0.2632169 0.3256108
0000b0 86 54 16 be fb 6b e5 3d 83 42 24 3e 85 e6 e9 bd
       -0.1468068 0.11202236 0.16040997 -0.11420921
0000c0 11 b6 e9 3d e4 3c 65 bd 2f 04 36 be 59 1f 9a be
       0.114116795 -0.055966273 -0.17775033 -0.3010204
0000d0 6e 0c a3 be 3a 77 4e be 8d ac e3 3c 41 15 f6 bc
       -0.3184542 -0.20162669 0.02779224 -0.030039432
0000e0 ca f4 7f be b5 a7 73 3e 45 1e b6 3e de 9f b0 be
       -0.24995723 0.23794444 0.3556997 -0.3449697
0000f0 aa ac 12 be 64 fc 7c 3e e0 c8 ba 3e 68 f1 10 3e
       -0.14323679 0.24705654 0.3648138 0.14154589
000100 09 e0 16 be 22 c4 02 3d ae 9c 81 be e9 b0 45 bd
       -0.147339 0.031925328 -0.2531485 -0.048264418
000110 50 3a 7e be 53 d4 60 bd 30 84 7d be 53 bd 3e be
       -0.24826932 -0.05488999 -0.24757457 -0.18626909
000120 aa 0d 1c be 88 8a 3c 3e d4 34 09 be 08 6c eb 3d
       -0.15239587 0.1841222 -0.13399059 0.11495215
000130 45 7f 95 be ed 22 df 3c cd 04 f6 bd 2a dc 28 bd
       -0.2919866 0.027238334 -0.120126344 -0.04122559
000140 65 a0 3c be 68 fb b7 3e 4a b6 88 3e b6 9f 0f 3e
       -0.1842056 0.35933995 0.26701576 0.14025769
000150 96 e5 42 bc c8 fd 23 3e 69 1c 1f 3e 64 a5 93 3d
       -0.011895558 0.16014779 0.15538181 0.0720928
000160 72 bf 66 be 96 96 66 3e 88 cd 9b 3c f3 1b 4e be
       -0.22533968 0.22518381 0.019018903 -0.2012785
000170 1d b1 ac be 61 04 02 3e 5c ba 07 3e f6 8c f4 bd
       -0.33728877 0.12696983 0.13254684 -0.11940949
000180 e7 32 eb bc 37 40 71 3e 06 1c 9f 3c 3f 61 30 3e
       -0.028710796 0.23559652 0.019422542 0.17224596
000190 de 55 43 be 87 06 13 3e e9 6d fa 3c 02 1b 3c 3e
       -0.19075724 0.14357959 0.030569987 0.18369678
0001a0 96 ef 51 be c0 85 2c be e4 06 9f 3e 23 fe b8 3e
       -0.20501551 -0.16847897 0.31059945 0.3613139
0001b0 7b 32 43 3e b4 2e 8b 3e 32 a7 65 3e 55 e5 fd bd
       0.19062226 0.2718407 0.22427061 -0.12397257
0001c0 d5 33 19 be d1 99 ab be 1f af c6 bd c9 de 69 be
       -0.14961179 -0.3351579 -0.097013704 -0.22838892
0001d0 50 68 55 ba 0b 08 f5 3d 3d 0d a6 bd 6c a1 9a be
       -0.0008140849 0.11964425 -0.08107994 -0.3020128
0001e0 7f 0f 83 3e 9c bc 04 be 0b be 72 3d 12 26 0f 3d
       0.2559776 -0.12962574 0.05926327 0.034948416
0001f0 f2 f1 9b bd 52 04 4d be bf 51 5e 3e a1 73 6a 3d
       -0.07614507 -0.2002118 0.21710871 0.05723918
000200 06 21 d4 bd d5 e2 59 3e 03 04 9e 3e 23 af 29 3e
       -0.10357861 0.21277936 0.30862436 0.16570716
000210 71 92 81 be 23 17 46 bc 13 cd 7c 3e ae 41 b2 be
       -0.25307038 -0.012090477 0.24687605 -0.34815735
000220 a4 a8 be 3d f9 c2 85 3e 34 cc b8 3e 9a 03 a2 3e
       0.093095094 0.26125315 0.36093295 0.31643373
000230 09 71 20 3e b5 e8 2d bd a6 92 9d 3a 9c d3 a8 be
       0.1566812 -0.042458255 0.0012021854 -0.32973945
000240 b1 e4 1f bd c6 2c 8a be f0 b6 a1 be 9f cf 86 3e
       -0.039036456 -0.26987284 -0.31584883 0.26330277
000250 d7 e8 34 3e a4 20 dd 3a 05 b7 c4 3c d9 68 49 3e
       0.17666946 0.001687069 0.024013052 0.19668902
000260 ff 71 0a be 80 21 3b bd fe 57 4a 3e 1c 22 39 3e
       -0.13520049 -0.045686245 0.19760129 0.18079418
000270 df 93 c3 3d d7 7d 02 be 76 94 b9 3d 80 d0 b0 bd
       0.095496885 -0.12743317 0.0906152 -0.08633518
000280 bd 7a 96 3d 22 38 48 3e f2 4c 1c 3e fc 10 72 3e
       0.07347629 0.19552663 0.15263727 0.23639292
000290 f6 2e 81 3d c4 af cf 3d ba 50 b8 be bc 5f a1 be
       0.06307785 0.101409465 -0.3599909 -0.31518352
0002a0 e0 51 37 3d 86 f3 c4 bd 8b 11 19 be 29 3b 6c 3d
       0.044755816 -0.09616761 -0.14948098 0.057673607
0002b0 70 fe 8f 3e b8 40 a0 3e 71 b7 f7 3d 76 db 59 bd
       0.28123808 0.31299376 0.120955355 -0.05318781
0002c0 c0 34 0b 3e 0f 32 81 be d2 d7 5c be ef 3b f0 3d
       0.13594341 -0.25233504 -0.21566704 0.117301814
0002d0 9f 52 4d 3d 54 ce 70 3d b4 7f 37 bd a7 48 49 3d
       0.05012762 0.05879052 -0.04479952 0.049141552
0002e0 23 a4 83 be eb 16 b0 bd 95 b5 e5 bd 82 39 ab bd
       -0.25711164 -0.08598121 -0.11216275 -0.08360578
0002f0 b7 bb 64 be 9a 95 d8 bd fa e8 81 bd 45 9e ea bd
       -0.22337233 -0.10575409 -0.06343265 -0.11455969
000300 5c 39 4a 3d 3e ad 3f be 60 42 85 3d 40 44 90 be
       0.04937111 -0.1871843 0.06506801 -0.2817707
000310 8d 0e f6 3c 61 03 8b 3e 40 52 91 3e 17 09 7d 3e
       0.030036235 0.27151015 0.28383064 0.24710499
000320 2b 48 af bd f6 32 0b 3e 4b 2b 27 3e d3 70 af bd
       -0.08558687 0.13593659 0.16325109 -0.085664414
000330 e5 01 74 be 53 94 2a 3e 2d 27 30 3e b4 2a b2 3d
       -0.23828848 0.16658144 0.17202444 0.08699551
000340 fd 0a 26 be a0 b0 1d 3e e1 50 a9 3d a9 20 20 be
       -0.16215129 0.15399408 0.082673796 -0.15637459
000350 5c f6 d6 3d 21 63 72 be a6 23 df 3c 1e e6 82 be
       0.10496208 -0.23670627 0.027238678 -0.2556619
000360 b4 04 81 bc 2a d8 63 3e 2a ec 46 3e cf b4 97 3e
       -0.015749313 0.22250429 0.19426027 0.29630134
000370 1c e7 5a bd 9b de f7 3d 45 99 07 be d6 28 da 3d
       -0.05344306 0.121030055 -0.13242061 0.1065232
000380 49 c4 f2 bb 3a de 5f 3e 41 c8 54 be 5d e3 9d be
       -0.007408653 0.21862116 -0.20779516 -0.30837527
000390 75 8f 12 3c 1d 1c 28 3d 69 2a 0e 3e 02 18 2d bd
       0.008945336 0.041042436 0.13883366 -0.042259224
0003a0 96 60 cc 3c 65 71 f1 3d 11 fc 30 3e 90 a0 14 3e
       0.0249484 0.117892064 0.17283656 0.14514375
0003b0 77 d1 5a 3e 5e 1a 2d be 6d 5a 3f 3e 2f cb 40 3c
       0.21368967 -0.1690459 0.18686838 0.011767193
0003c0 a2 3e 47 3e 25 a3 9d be 64 58 66 be a1 5b 36 3d
       0.19457486 -0.30788532 -0.22494656 0.044520978
0003d0 2c 61 c4 3d 54 45 ef bd bf e2 2f 3e d6 bf 0b be
       0.095888466 -0.11683145 0.1717634 -0.13647398
0003e0 cf 57 c8 3c 01 19 23 3e 8a 10 d8 bd 9f 75 2a 3d
       0.024455933 0.15927507 -0.105500296 0.04161608
0003f0 bb c1 6a be 33 97 8a bd b4 7b 55 3e 75 39 3d 3d
       -0.22925465 -0.0676712 0.2084797 0.046197373

bias f4 [20]
000000 93 42 ce 3d f3 96 f8 bd 3b 03 3d 3c db 88 c0 3d
       0.10071292 -0.12138166 0.011536415 0.09401103
000010 ce 63 b3 bd 57 52 76 3e 28 ce 1a be 22 40 40 bd
       -0.087592706 0.24054848 -0.15117705 -0.04693616
000020 ea ce 8f 3e 9b 5a 1a 3e 8e 4c 76 bd 0b 06 81 3e
       0.2808755 0.15073626 -0.060131602 0.25199923
000030 fa 17 c1 3c 4e 9f 3a 3e 59 a8 b7 bd 42 80 9c bd
       0.023571003 0.18224832 -0.08967657 -0.07641651
000040 58 96 35 bb db 8f 1b bd ea 97 48 3e e6 04 42 3c
       -0.002770802 -0.03797899 0.195892 0.011841988

weight f4 [22, 20]
000000 23 9c a0 bd 09 8b f9 3d 96 3e 83 bd f1 e0 cc 3d
       -0.07842281 0.12184722 -0.06408422 0.10003842
000010 fd c5 4c be d8 9b db bd c5 ef 14 3d 32 64 70 be
       -0.19997402 -0.10723084 0.036361475 -0.23475721
000020 1b 8e b1 3b 56 4d c0 3d f4 a6 54 3e 5a 8a ea bd
       0.0054185516 0.09389751 0.20766813 -0.1145217
000030 33 66 88 be a3 bd 3f 3d 60 1f b6 3c e4 fd e8 bc
       -0.26640472 0.04681171 0.022231758 -0.028441377
000040 c5 a9 bd bd 04 41 72 3e cf f4 97 bd a5 54 92 3d
       -0.092608966 0.23657614 -0.074197404 0.07145051
000050 8c 0b 67 3e c9 01 c8 bd ab 17 6d be 5c f5 a4 bd
       0.22562999 -0.097659655 -0.2315356 -0.08054611
000060 2a 06 b2 bd 80 3f 74 bd 25 80 23 be 5b 3c 1d 3e
       -0.08692582 -0.05963087 -0.15966852 0.15355055
000070 f7 82 13 be 3e 92 ee 3d 9e 6f 0d bd 5d 61 47 bc
       -0.14405428 0.11648987 -0.034530275 -0.012169209
000080 e8 d4 29 3e 10 00 80 3d 14 93 b4 3c 19 35 01 3e
       0.16585124 0.06250012 0.022042789 0.12617911
000090 4f 18 3d 3e f2 26 74 bd d9 68 10 be 77 b7 14 bd
       0.18466304 -0.059607454 -0.14102496 -0.03630778
0000a0 4c b6 dc 3d d9 56 ef 3d 69 98 89 bc 1e a7 86 3d
       0.10776958 0.11686487 -0.016796308 0.06574844
0000b0 41 43 2b be b6 00 e2 bd 80 d8 6c 3d 7e bb 85 bc
       -0.16724874 -0.11035292 0.057823658 -0.016324755
0000c0 3b cc 2f be 21 9a 0c 3e 47 32 72 bd a5 c6 f7 3c
       -0.17167751 0.1373067 -0.05912998 0.030246088
0000d0 e2 75 4f be 86 6c 76 3a 4b 6d b3 bd 55 77 9b 3d
       -0.20259812 0.00094003265 -0.0876108 0.0759112
0000e0 05 38 57 be 4e 6c aa bc 1b 72 8f bd b4 8a ce bd
       -0.21017464 -0.020803597 -0.07004186 -0.10085049
0000f0 64 5b a4 bd a8 7e 38 be 0c ca 7e be 01 80 5d bd
       -0.08025244 -0.18017066 -0.24881762 -0.054077152
000100 26 46 d3 3d a7 92 0d 3e a5 a5 11 be 41 57 4d be
       0.10316114 0.13825475 -0.14223345 -0.20052816
000110 04 08 80 bd 8f 58 90 be 35 a6 34 be f6 64 09 be
       -0.06251529 -0.28192565 -0.17641528 -0.1341742
000120 c9 21 fe bd c5 fd 6a 3e f1 38 44 3e 70 1e 07 be
       -0.12408788 0.22948368 0.19162346 -0.13195205
000130 e6 c5 38 be 2b f9 3d 3e 6b 5c 4e 3e 25 74 ce 3d
       -0.18044242 0.18552081 0.20152442 0.100807466
000140 9b 5a e7 bd a9 00 24 3c a9 4e 2a be 39 31 f7 3d
       -0.112965785 0.010009923 -0.16631569 0.12069935
000150 69 c5 0a bd 6c 8c b3 bc 1b fc 30 3e 3a cc 54 be
       -0.03387967 -0.021917544 0.1728367 -0.20781031
000160 5e 0f bc bd 8c 3d a7 3b 61 15 71 3e 89 b3 11 3e
       -0.091826186 0.0051037725 0.23543312 0.14228643
000170 13 2d f0 bd ea 60 4b ba 57 f0 89 3d fa 0c 3e be
       -0.11727347 -0.0007758277 0.06735294 -0.18559638
000180 18 0f 5c 3d a5 4d f7 bc e0 ea dc 3d 41 f9 19 be
       0.053725332 -0.030188391 0.10786986 -0.15036489
000190 58 95 c0 3d bf 93 da 3d 9b 82 27 3d db 7e 98 3d
       0.09403485 0.106727116 0.04089604 0.07446071
0001a0 e3 fd 98 bd f5 62 d9 3d 71 54 74 be 08 cc 8b be
       -0.074703 0.10614578 -0.23860337 -0.273041
0001b0 81 6a 9d 3d 6a 0e 46 be 13 13 4f bd 02 b4 da bd
       0.0768633 -0.19341436 -0.0505553 -0.10678865
0001c0 6c fe b6 bd 74 99 e2 bd ac e3 89 bd e4 c4 15 3e
       -0.08935246 -0.11064425 -0.06732878 0.14625889
0001d0 a4 bf 22 be e1 57 05 be dd 81 37 3e fe 48 47 bd
       -0.15893418 -0.13021804 0.17920633 -0.048653595
0001e0 b6 78 57 be f4 07 4d be d0 ff 78 bd 69 7c 09 3c
       -0.21042141 -0.20022565 -0.060790837 0.008391478
0001f0 30 3b 27 be ab 71 85 3e c2 20 53 be 3c 4e 00 3d
       -0.16331172 0.26063284 -0.20617965 0.03132461
000200 5d 13 55 3e e8 c9 73 be 3c e1 d5 3d 96 15 e9 bd
       0.20808168 -0.2380749 0.10443351 -0.1138107
000210 9c 28 cb 3d 29 3c 85 3e 20 7c 6e 3c 74 4b 54 bd
       0.09919855 0.2602246 0.014555961 -0.05182977
000220 6b 65 42 b7 10 2d 9b bd 02 d2 2f be ab 5d fd 3d
       -1.1586914e-05 -0.07576954 -0.17169955 0.12371381
000230 69 18 5c 3d 29 40 3a 3d 5e 9e 8e be f3 54 a4 3d
       0.053734217 0.045471344 -0.278552 0.08024015
000240 0c 45 80 bc 76 7d 26 3e 1b 4c 88 be 29 b7 3c be
       -0.015657924 0.16258797 -0.26620564 -0.18429245
000250 27 d4 3f 3e cd 80 df 3d f8 9b 8b 3d 5e db 32 3d
       0.18733273 0.10913239 0.06816858 0.043666236
000260 fb 3c 52 3d 6a 97 b1 bc 0c 7b 46 3e 25 8a 19 3e
       0.051327687 -0.021678645 0.19382876 0.14994104
000270 84 3f 2f bd 6f 02 39 3e a4 94 95 bc 48 d0 5f be
       -0.042785183 0.18067335 -0.018259354 -0.21856797
000280 16 09 a5 3c 8f d1 2d 3e 15 06 ac bc 0a df 04 be
       0.020145934 0.16974472 -0.020998994 -0.12975708
000290 dd 89 41 3d fd 6c 87 3d cd 8f 07 3c 1c 3d 3c bc
       0.047250617 0.06612585 0.008274031 -0.011489179
0002a0 9a 2c dc bd db a5 53 be 12 c9 fd 3d e7 54 47 3e
       -0.107506946 -0.20668738 0.12391867 0.19465981
0002b0 32 2c 44 be c9 fc b2 3d c8 a6 ba 3d 0f 0c b6 3d
       -0.19157484 0.08739621 0.09113842 0.08889019
0002c0 8e 5c 40 3b e9 45 38 3e 0e eb 53 3e da 30 89 be
       0.0029352042 0.17995419 0.20695135 -0.26795083
0002d0 23 36 dc bd 95 43 99 bd f7 ab 5b 3e b0 47 ae 3d
       -0.10752513 -0.074835934 0.21452318 0.08509767
0002e0 d1 cb 13 3e cf 2c 90 bd 00 64 16 be f9 a2 4b 3e
       0.14433219 -0.070397966 -0.14686584 0.19886388
0002f0 05 d9 24 3d 10 24 72 3e 46 e5 59 be 18 bf fb bd
       0.04024603 0.23646569 -0.21278867 -0.122923076
000300 94 eb e7 3d 29 e3 21 3e d6 db a6 3d 73 57 2a be
       0.1132423 0.15809311 0.08147399 -0.16634922
000310 49 e0 93 3d 98 bf 01 3e 66 ec ce 3d 7a a1 f1 bd
       0.072205134 0.12670743 0.10103683 -0.11798377
000320 7b 12 bc 3d 4a e4 3b be 7a 91 76 bb b5 1d 26 3d
       0.09183212 -0.18348804 -0.0037623332 0.040555675
000330 80 07 f4 bc 3f c9 58 3d 2b 40 f2 3d 3f 55 19 be
       -0.029788733 0.0529263 0.11828645 -0.14973925
000340 3d 73 76 be 73 54 30 bc 8a 3c 15 3e cc b9 91 be
       -0.24067397 -0.010762322 0.14573875 -0.28462064
000350 a7 b8 12 be d3 71 3f bd 68 18 02 3e f1 80 3f 3e
       -0.14328252 -0.04673941 0.12704623 0.18701531
000360 6b c0 05 be ca 0e 77 bd 5c 2e 6c 3b 3c 53 ac bc
       -0.13061683 -0.06031684 0.0036038375 -0.021035783
000370 db 7c b7 bc 63 d2 37 be d7 3f 4e be 7e c4 09 be
       -0.022398403 -0.1795135 -0.2014154 -0.13453862
000380 b6 1f fd bd 68 93 09 3e 34 65 24 3c d7 eb 5c bd
       -0.12359564 0.13435137 0.010033894 -0.053935852
000390 2d dc 36 3d 9c 96 8d be e2 24 6f 3e 1b 7e 57 bc
       0.04464357 -0.27653968 0.23353913 -0.0131526245
0003a0 21 7c 7c be 97 5e 53 3e d7 1e 5b be 88 cb e2 bd
       -0.24656726 0.20641552 -0.21398483 -0.11073977
0003b0 45 2c 03 3d 11 f4 f0 3d 3d 27 30 3e d1 35 58 be
       0.03202464 0.11765302 0.17202468 -0.2111428
0003c0 50 41 22 3e 84 51 0e be 15 07 54 be 58 f3 2e 3d
       0.15845227 -0.13898283 -0.20705827 0.04271254
0003d0 1e 47 4b be 57 d1 49 3e 7a 2b 5e bd cb 58 fb 3c
       -0.19851348 0.19708763 -0.05424068 0.030681988
0003e0 56 6e 13 be 45 70 fc bd ac 75 30 3d 73 03 e1 3d
       -0.14397559 -0.12326101 0.04308097 0.10986986
0003f0 de 38 18 3d a6 5b 12 3e ef 7b 09 3e ac 37 04 3d
       0.037163608 0.14292774 0.13426183 0.032279655

bias f4 [22]
000000 76 c3 84 3e 65 17 c0 bc 07 4e e1 bc c1 09 58 3e
       0.25930375 -0.023448655 -0.027503027 0.21097471
000010 56 70 7d 3e 6d 07 42 3a 51 85 76 3e b0 b5 5e 3d
       0.24749884 0.0007401619 0.24074294 0.05437249
000020 a3 97 d4 3d 02 8c f1 3d 8c 26 fd bc 7b f0 22 bd
       0.10380485 0.117942825 -0.03090217 -0.03978012
000030 2f 74 37 3e 17 e9 ed 3d 8c f6 19 bd d1 f2 10 3e
       0.17915414 0.11616724 -0.03758864 0.14155127
000040 73 2f 20 3e 68 f9 1a be 42 55 43 3e c0 1f fe 3c
       0.156431 -0.15134203 0.19075492 0.031020999
000050 62 48 32 3d 46 f0 60 3e
       0.04352606 0.21966657
